…
        "model.compile(otimizer='rmsprop', loss='categorical_crossentropy', metrics=['accuracy', 'top_k_categorical_accuracy'])\n",
        "model.summary()"
      ],
      "execution_count": 0,
      "outputs": [
        {
          "output_type": "stream",
          "text": [
            "Model: \"sequential_1\"\n",
            "_________________________________________________________________\n",
            "Layer (type)                 Output Shape              Param #   \n",
            "=================================================================\n",
            "conv2d_8 (Conv2D)            (None, 256, 256, 16)      2368      \n",
            "_________________________________________________________________\n",
            "leaky_re_lu_8 (LeakyReLU)    (None, 256, 256, 16)      0         \n",
            "_________________________________________________________________\n",
            "conv2d_9 (Conv2D)            (None, 256, 256, 16)      6416      \n",
            "_________________________________________________________________\n",
            "leaky_re_lu_9 (LeakyReLU)    (None, 256, 256, 16)      0         \n",
            "_________________________________________________________________\n",
            "max_pooling2d_4 (MaxPooling2 (None, 64, 64, 16)        0         \n",
            "_________________________________________________________________\n",
            "conv2d_10 (Conv2D)           (None, 64, 64, 32)        2080      \n",
            "_________________________________________________________________\n",
            "leaky_re_lu_10 (LeakyReLU)   (None, 64, 64, 32)        0         \n",
            "_________________________________________________________________\n",
            "max_pooling2d_5 (MaxPooling2 (None, 32, 32, 32)        0         \n",
            "_________________________________________________________________\n",
            "batch_normalization_2 (Batch (None, 32, 32, 32)        128       \n",
            "_________________________________________________________________\n",
            "dropout_5 (Dropout)          (None, 32, 32, 32)        0         \n",
            "_________________________________________________________________\n",
            "conv2d_11 (Conv2D)           (None, 32, 32, 64)        51264     \n",
            "_________________________________________________________________\n",
            "leaky_re_lu_11 (LeakyReLU)   (None, 32, 32, 64)        0         \n",
            "_________________________________________________________________\n",
            "dropout_6 (Dropout)          (None, 32, 32, 64)        0         \n",
            "_________________________________________________________________\n",
            "conv2d_12 (Conv2D)           (None, 32, 32, 96)        55392     \n",
            "_________________________________________________________________\n",
            "leaky_re_lu_12 (LeakyReLU)   (None, 32, 32, 96)        0         \n",
            "_________________________________________________________________\n",
            "dropout_7 (Dropout)          (None, 32, 32, 96)        0         \n",
            "_________________________________________________________________\n",
            "max_pooling2d_6 (MaxPooling2 (None, 16, 16, 96)        0         \n",
            "_________________________________________________________________\n",
            "batch_normalization_3 (Batch (None, 16, 16, 96)        384       \n",
            "_________________________________________________________________\n",
            "conv2d_13 (Conv2D)           (None, 16, 16, 128)       196736    \n",
            "_________________________________________________________________\n",
            "leaky_re_lu_13 (LeakyReLU)   (None, 16, 16, 128)       0         \n",
            "_________________________________________________________________\n",
            "max_pooling2d_7 (MaxPooling2 (None, 8, 8, 128)         0         \n",
            "_________________________________________________________________\n",
            "conv2d_14 (Conv2D)           (None, 8, 8, 128)         65664     \n",
            "_________________________________________________________________\n",
            "leaky_re_lu_14 (LeakyReLU)   (None, 8, 8, 128)         0         \n",
            "_________________________________________________________________\n",
            "dropout_8 (Dropout)          (None, 8, 8, 128)         0         \n",
            "_________________________________________________________________\n",
            "conv2d_15 (Conv2D)           (None, 8, 8, 256)         295168    \n",
            "_________________________________________________________________\n",
            "leaky_re_lu_15 (LeakyReLU)   (None, 8, 8, 256)         0         \n",
            "_________________________________________________________________\n",
            "dropout_9 (Dropout)          (None, 8, 8, 256)         0         \n",
            "_________________________________________________________________\n",
            "flatten_1 (Flatten)          (None, 16384)             0         \n",
            "_________________________________________________________________\n",
            "dense_1 (Dense)              (None, 120)               1966200   \n",
            "=================================================================\n",
            "Total params: 2,641,800\n",
            "Trainable params: 2,641,544\n",
            "Non-trainable params: 256\n",
            "_________________________________________________________________\n"
          ],
          "name": "stdout"
        }
      ]
    },
    {
      "cell_type": "markdown",
…
